exercise_5/remote/packages/digit_detection/src/ex5-model.pt (torch, 891495 bytes, 6 tensors)

input_fc.weight f4 [250, 784]
000000 b4 95 36 3d 52 4f d2 b8 ad 2f b5 3b 55 cf 1e bb
       0.04457636 -0.00010028355 0.005529365 -0.0024232466
000010 ba 93 36 3d 9d ff c2 3c dd cb 87 3b 6b 12 9a 3a
       0.044574477 0.023803527 0.0041441754 0.0011754757
000020 12 6f ec 3c e8 85 84 bb e9 35 db 3c b9 ae 26 3d
       0.028861556 -0.004044283 0.026759105 0.040693972
000030 0c e2 c6 bb 26 ee 82 bc 56 93 8c bc a0 15 bc bc
       -0.0060694274 -0.015982699 -0.017160099 -0.02295953
000040 7d a9 d3 3c c8 7c 4b bc 6a f7 46 bc bd e7 1c bc
       0.025837654 -0.012419887 -0.012143949 -0.009576735
000050 e2 76 f8 3b 36 a9 3f 3d 58 8c 9d 3c 38 2a 10 3d
       0.0075825313 0.04679223 0.01923196 0.035196513
000060 42 e7 0d 3c 07 0b ea 3b 50 d8 0b bc ca 86 24 3d
       0.008661093 0.007142428 -0.00853546 0.040167607
000070 4a 85 04 3b fa 01 05 3b 5a 4b c1 3c 26 d3 3a 3d
       0.0020221048 0.0020295368 0.0235955 0.045611523
000080 10 df 69 3d e9 69 ac 3c 9a 27 2d 3d ae 3c 46 3c
       0.057097495 0.021046596 0.042274095 0.012099428
000090 90 df 25 bd b9 49 ff bc 01 57 8a 3c 55 d6 46 bc
       -0.04049641 -0.031163083 0.01688719 -0.012136062
0000a0 ae 51 56 bb a9 c4 8f 3c a0 b3 59 bd 2c 02 f9 bc
       -0.0032702493 0.01754983 -0.05314982 -0.030396543
0000b0 94 2d 7f bb dc 64 ec 3c 21 a7 ae 3b 0a 1e 02 3d
       -0.0038937079 0.028856687 0.005329982 0.03176693
0000c0 77 54 d6 3c 5d 79 8f 3d 62 14 ee 3c 08 36 7a 3b
       0.026163323 0.0700557 0.029062454 0.0038179178
0000d0 68 e2 31 bc c8 06 30 3d 75 5f 88 3c 8b f3 c6 bb
       -0.010857202 0.042975217 0.01664708 -0.006071513
0000e0 04 b5 60 3d 31 89 4c 3d 01 ee 03 3d 9b 95 2f 3c
       0.05486013 0.049935523 0.0322094 0.010716821
0000f0 19 d7 28 bc 8a ee 02 3d c0 80 9f bc e2 e8 55 bd
       -0.0103051895 0.03196577 -0.019470572 -0.052224047
000100 db 30 95 bd 7d bb 79 bd 00 4d c2 bc e4 93 47 bd
       -0.07284709 -0.06096982 -0.023718357 -0.048725024
000110 bc 82 9b bd 1f 02 37 bd f9 af 09 be e4 c1 f2 bd
       -0.07593295 -0.044679757 -0.13446034 -0.11853388
000120 e4 4e 01 be a4 7e 09 bd bb 8a 8a bb 7f e2 16 3d
       -0.1262775 -0.03356804 -0.0042279637 0.036837097
000130 aa 5e a0 3c 0f 60 79 3d 33 93 27 3d b0 d1 15 3d
       0.01957639 0.060882624 0.040911864 0.036576927
000140 02 7e 81 3d c6 97 0e 3d 2c 9e fe 3b c8 3d 3d 3d
       0.06322862 0.03481271 0.0077703204 0.046201497
000150 5c a2 59 3d ca 13 c6 ba 2f 43 0d 3c f4 59 79 3b
       0.053133354 -0.0015112099 0.008621975 0.0038048
000160 46 b6 46 3d a6 00 ea 3c 63 f4 2a bd df ea 41 bd
       0.048513673 0.028564762 -0.04173697 -0.04734313
000170 89 73 de bb b8 34 83 bd 96 d3 f0 bb b6 85 a7 3b
       -0.006788675 -0.0640654 -0.0073494418 0.005112375
000180 1f ba 01 3d bb f4 6e bd 05 09 28 bd c2 37 9f bc
       0.03167164 -0.058338862 -0.041024227 -0.019435767
000190 5d 13 91 bc 83 c6 aa 3c 11 57 fa bc 7f 3c 8a 3c
       -0.017709428 0.02084661 -0.030559095 0.01687455
0001a0 90 e3 b3 3d 8f f6 96 3d ca 4b af 3d 18 fa 67 3d
       0.087836385 0.07371246 0.085593775 0.056634992
0001b0 e6 dc a2 3d d8 89 40 3a 75 f9 12 3d 5e d2 71 bc
       0.07952289 0.0007344759 0.035882432 -0.014759628
0001c0 a1 b1 15 3d 52 ee 41 3c f0 21 41 3d 66 f0 95 bb
       0.036546353 0.011836605 0.047151506 -0.004575777
0001d0 27 d1 71 3c 1e 6d ad 3c 08 68 04 3d 8d b1 ef 3b
       0.014759338 0.021170195 0.032325774 0.007314867
0001e0 51 77 6d 3c 88 39 f0 bc 23 ed 89 bc 34 55 1e bd
       0.014493779 -0.029324308 -0.016836708 -0.038655475
0001f0 82 5e 63 bd 12 da 55 bd 09 45 7c bd 7e 7c ad bc
       -0.05551005 -0.05220992 -0.061589275 -0.021177527
000200 de a4 89 3d f6 06 fb 3c 07 ca bb bc 02 d3 0e 3d
       0.06720899 0.030642968 -0.022923483 0.0348692
000210 ba 94 99 3c 01 7b 00 3d 66 ce 39 3d ad ad 25 3d
       0.018747676 0.031367306 0.045362853 0.040448833
000220 3c 50 6e 3c 7d 15 41 3c ae de 6f 3d f8 ff f8 3c
       0.014545497 0.011784908 0.058561973 0.030395493
000230 17 0d c5 3c 58 1a 86 3c cf 34 92 3d f8 79 88 3d
       0.024054093 0.016369984 0.07138979 0.06663889
000240 39 9d a3 3d 7c fd 52 3d 93 1f 77 3d be 51 99 3d
       0.07988972 0.051511273 0.060332846 0.07486294
000250 e8 58 8f 3d ee b5 99 39 8e e9 46 bc ac 59 ab bd
       0.069993794 0.00029317982 -0.012140645 -0.08366713
000260 c0 7a 1c 3c f3 a6 41 bd 0e 9d 32 bb c4 9f 99 3b
       0.00955075 -0.047278356 -0.0027254256 0.004688235
000270 2d 4d 74 bd 27 00 22 3d 82 64 49 3c 02 8f 82 bd
       -0.059643913 0.039550927 0.012292029 -0.06374933
000280 fb 46 d2 bd 88 cc d6 bc e9 3c 24 3d 13 35 04 3e
       -0.10267445 -0.026220575 0.04009715 0.12910871
000290 6c b7 57 3d ac e8 9f 3d d8 68 70 3c ff db 62 3d
       0.05266516 0.078080505 0.014673434 0.055385586
0002a0 7c b3 a7 bb 39 e2 c2 3c 86 84 e2 3c 43 24 81 3d
       -0.0051178318 0.023789512 0.027651083 0.063057445
0002b0 8b 66 b0 3c 9e e7 53 3d bb 98 81 3d e7 1e c1 3d
       0.021533271 0.05173456 0.06327959 0.09429722
0002c0 28 ad a4 3c f0 b8 0f bc f3 4a a4 bd 1b 59 25 bd
       0.020102099 -0.00877212 -0.08022108 -0.04036818
0002d0 b6 18 16 3a 7f 9a cb bc 8f 30 5b bc c0 03 50 bd
       0.0005725728 -0.024853943 -0.0133782765 -0.050784826
0002e0 f8 02 14 be 72 7a 79 bd 69 bf 2f bd d8 9e 8c bc
       -0.14454257 -0.06090779 -0.042907152 -0.017165586
0002f0 b3 55 a0 bd 75 c2 92 bc 85 7c 45 3d ce 84 13 3d
       -0.07828846 -0.01791499 0.048214454 0.036015324
000300 eb a8 a0 3d 8e 30 bd 3c 25 91 59 3a 2b 26 8e 3d
       0.078447185 0.023094442 0.0008299521 0.06940874
000310 88 5a 87 3b 3a 1d a2 3c 6e 95 56 3d 75 7f 5d 3d
       0.004130665 0.019789327 0.0523886 0.05407663
000320 70 1d 57 3d b5 73 a0 3d 07 73 38 3d c2 f3 4c 3d
       0.05251831 0.07834569 0.045031574 0.050037153
000330 c0 c2 59 3c 44 77 44 bd 7b 6a a5 bd a2 9e ae bd
       0.013291061 -0.047965303 -0.0807695 -0.085263506
000340 7f 84 2a bc a2 22 56 bd 49 21 a2 bd 3d 09 4c bd
       -0.010407566 -0.052279122 -0.07916505 -0.049813498
000350 65 20 78 bd ff 64 71 bd 49 0a bc bc fe ff cb bc
       -0.06057777 -0.058934208 -0.022954123 -0.02490234
000360 7b 10 c5 bc bc 3a 09 bd c6 8e 42 3a ff 70 64 bc
       -0.02405571 -0.03350328 0.00074217876 -0.013942956
000370 91 48 ab 3d 19 5b 70 3c 4e 33 ba 3c d5 29 71 3d
       0.0836345 0.014670157 0.022729542 0.058877785
000380 75 b4 af 3b 92 e3 86 3c 52 f5 b3 3d 49 ad da 3d
       0.0053620883 0.016465936 0.087870255 0.10677583
000390 8f f6 e8 3c e5 a4 9d 3d b2 d1 c7 3d 19 b1 8b bc
       0.02843788 0.07697467 0.09756793 -0.01705222
0003a0 f6 43 6a bd e3 bf 87 bd 7f 81 77 bd 01 4b a8 bd
       -0.05719372 -0.06628396 -0.06042623 -0.08217431
0003b0 0b a4 dc bd 7a 3a 99 bd a5 88 e2 bc 63 ab 87 bd
       -0.10773476 -0.07481857 -0.027653048 -0.06624486
0003c0 d0 7f 94 bb da cd f7 bb 05 df 3f bc 18 10 44 3c
       -0.004531838 -0.007562381 -0.011710887 0.011966728
0003d0 29 7b 33 3c 1f a5 29 3d 50 c2 01 bd 44 25 2c bc
       0.010954657 0.041417237 -0.03167945 -0.010506932
0003e0 ad 08 73 3d ef 75 8b 3d b2 b0 6b 3d 68 42 f9 3c
       0.059334446 0.068096034 0.057541557 0.030427173
0003f0 69 00 81 3c 41 dd d1 3c c9 75 d0 3d 7a 0e de 3d
       0.015747266 0.025618197 0.10178716 0.10842605

input_fc.bias f4 [250]
000000 38 1a c1 bc d8 aa 5e bd a2 a0 5f bc a4 b4 82 bc
       -0.023572072 -0.054362148 -0.013649138 -0.015955277
000010 e9 b1 a8 3c 44 5f c2 3b f2 0c 94 bd 9c f3 2d bd
       0.020592647 0.0059317667 -0.072290316 -0.042468652
000020 21 9d 1f bd 83 16 78 bc ba 43 80 bd 85 6f 42 3a
       -0.03896821 -0.015142086 -0.06262918 0.00074171304
000030 06 fc 70 bd dd 42 4a 3b 41 74 6c bd 74 b5 4c bd
       -0.0588341 0.0030862608 -0.057728056 -0.049977735
000040 da 6f 57 bc b5 67 d9 bc 56 95 a6 bd f1 98 53 bc
       -0.013149226 -0.02653871 -0.08133952 -0.012914882
000050 e4 85 bf bd bf 3c 99 bd f0 1b ff bc e6 1e f7 bc
       -0.093517095 -0.074822895 -0.031141251 -0.0301661
000060 ed 6b 18 bd 5c 05 80 3d 60 1a fd bc 09 4a 66 3b
       -0.0372123 0.06251022 -0.030896366 0.0035139343
000070 76 bd 75 b9 72 24 5b bc bf 8c 98 bd b9 ad 0c bd
       -0.000234356 -0.013375388 -0.0744872 -0.034345362
000080 89 dc 2a 3c 7b 65 89 bd 95 a9 2a 3c 54 04 51 bd
       0.010428556 -0.06708809 0.010416408 -0.05102952
000090 26 55 30 bc ec b6 ab bb e6 b7 cf bc 34 53 9c bc
       -0.0107624885 -0.005240312 -0.025356244 -0.019082643
0000a0 68 35 14 bd 3d 68 fa bc eb 16 12 bd 66 18 24 3d
       -0.036183745 -0.030567283 -0.035666388 0.04006233
0000b0 d5 77 b2 3d 33 20 04 bd e4 fd 6f 3c ff 8d 55 bd
       0.087142624 -0.03225727 0.014647935 -0.05213737
0000c0 f4 df c5 bb b6 b5 c4 bd a8 68 8f bc 32 df f4 ba
       -0.00603866 -0.09604971 -0.017505959 -0.001868224
0000d0 4a bd 6c bc 93 2c 85 bc 00 5f 3c 3d 7a 78 0d bc
       -0.014449427 -0.016256606 0.045989037 -0.008634681
0000e0 ad d5 da bc f7 dc fe bc 03 c6 20 bd c1 a6 09 bb
       -0.026713217 -0.031111224 -0.03925134 -0.0021003934
0000f0 de 07 a3 bb 63 b6 34 3a 5e 19 f3 bc fd 47 82 bd
       -0.004975303 0.0006893633 -0.029675182 -0.06361387
000100 55 c7 5b bc 15 b2 9a bc 47 56 0d bd 0f 2d d0 bc
       -0.013414224 -0.018883744 -0.03450611 -0.02541211
000110 9d 2c 96 bd 36 f8 8c 3d 12 ed 53 bd cb 65 f2 ba
       -0.07332728 0.0688328 -0.05173976 -0.0018493471
000120 c7 74 a5 bd bb 77 7d bd 99 69 86 bb b2 b9 bd bc
       -0.08078914 -0.061881762 -0.0041019437 -0.023159835
000130 14 e2 29 bd e3 15 f8 3c 1a bd 54 3d 51 16 70 bc
       -0.04147537 0.030283874 0.051938154 -0.014653758
000140 18 5c a2 bd 55 17 8d bd 7d d3 86 bd b8 20 29 bd
       -0.07927722 -0.06889216 -0.06583307 -0.04129097
000150 47 f2 af bd cf 7a 6f bd 21 38 86 bd 28 30 11 bd
       -0.085911326 -0.05846673 -0.065536745 -0.035446316
000160 d7 e6 f8 bc 3a 6b e2 bc 25 ba ef bc 5f 68 21 bd
       -0.03038351 -0.02763902 -0.029263565 -0.039406177
000170 c0 c7 36 bc 11 f1 a0 bd bc ba f3 3c 41 04 88 bc
       -0.011156023 -0.0785848 0.029752128 -0.01660359
000180 55 7d 95 bc 8e 86 65 ba 0d 54 b3 bd d5 03 48 bd
       -0.01824824 -0.0008755707 -0.08756266 -0.04883178
000190 f3 1b d9 bc 71 bd 2d bd f0 88 07 3c 4c 54 bf bc
       -0.026502585 -0.042416994 0.008272395 -0.023355626
0001a0 82 2b a5 3a 4c 86 41 bd 7a 9a 2d 3c 89 06 25 bd
       0.0012601467 -0.047247216 0.010595912 -0.040289436
0001b0 37 fb 3f bd ac b8 a4 bc 35 ce 83 bd 29 ed a7 bd
       -0.046870437 -0.02010759 -0.06435815 -0.081995316
0001c0 11 19 f9 bc 37 ff 13 bd 56 31 49 bd 3b 02 84 bd
       -0.03040746 -0.036132064 -0.049119316 -0.06445738
0001d0 29 2f 3b bb 89 22 5f 3b 74 17 3d bd 57 2d 80 bd
       -0.0028562045 0.0034047684 -0.046164945 -0.06258648
0001e0 e3 27 8a bc ef 3c 41 3d ac cf 1a bd 25 c0 49 bd
       -0.016864723 0.04717725 -0.037795708 -0.04925551
0001f0 40 62 49 3a 85 94 67 bd 19 ef e5 bb 6b 5a 96 bd
       0.0007682182 -0.056538124 -0.007017028 -0.073414646
000200 0f b4 0d bd 2b b3 1c bc 21 ec 0c bd 39 44 0b bd
       -0.034595545 -0.009564201 -0.034404878 -0.03400061
000210 5b 3a a9 3c ed e2 fc bc 89 53 05 bd 84 50 8e 3b
       0.020657709 -0.030869925 -0.03255037 0.0043430943
000220 96 b2 26 bc c5 e4 45 bd 4d 4e 20 bd 5c 3a 35 bd
       -0.010174414 -0.048313875 -0.039137173 -0.04424511
000230 48 94 f6 bb 1d 0f 23 bd 68 a9 cb bb ed 27 a4 bc
       -0.0075250007 -0.039809335 -0.006215263 -0.02003857
000240 06 24 78 bd c3 96 aa bc 58 49 50 bd ac 3b 42 3d
       -0.06058123 -0.020823842 -0.050851196 0.04742019
000250 64 ca 67 bd 6c 8e a6 bd 97 b0 f3 bc c3 de 12 bd
       -0.0565895 -0.081326336 -0.02974729 -0.035856973
000260 8d b3 04 bd 7e aa 0c bd 37 54 27 bd 52 85 ba 3b
       -0.032397795 -0.03434228 -0.040851798 0.0056921626
000270 5e fc 69 bb 4c f2 62 bd 5b 7e b6 3c 92 b0 33 bc
       -0.00357034 -0.055406854 0.022277048 -0.010967391
000280 d0 03 29 bd 72 f7 27 3c 1b 88 09 3c db ff be bc
       -0.0412634 0.010251867 0.0083942665 -0.02331536
000290 f2 99 a5 3c 98 4f 1b 3d 4f ba 2a bd 84 e1 ca bd
       0.020215008 0.037917703 -0.041681584 -0.09906295
0002a0 4b 7c c7 3c 51 b8 2f bc 41 bb 55 bd 82 90 8e bc
       0.02435126 -0.010725097 -0.052180532 -0.017402891
0002b0 2d 6a 97 bd b6 52 f6 bc 7b 20 5a bc 1b 07 8c bc
       -0.07393298 -0.030068737 -0.013313408 -0.017093232
0002c0 fe 41 8a bc a3 8f 7f bd 3c bf c9 bc 67 fb 60 bd
       -0.01687717 -0.062392842 -0.02462732 -0.054927256
0002d0 3b 35 fe bc f9 1d 02 bd 13 ac 28 bd 88 7a 50 bd
       -0.031031242 -0.031766865 -0.041179728 -0.050898105
0002e0 86 0c 38 bd ab 15 ec bc 0a a1 11 bd f6 ec a6 bd
       -0.04493382 -0.028818926 -0.03555397 -0.081506655
0002f0 89 63 98 3c d1 96 82 bd 0b cc 39 bd 49 61 6d 3c
       0.01860215 -0.06376422 -0.045360606 0.014488527
000300 2c ca 8a bd e8 0c b8 3b 78 71 cc bc 40 ef 4e bd
       -0.067768425 0.005616773 -0.02495645 -0.050521135
000310 65 72 2f bd 8d 92 fe bc f2 fd bb bc 8f 8a 04 bc
       -0.042833705 -0.03107574 -0.022948239 -0.008089676
000320 9d ed 25 3c da 28 94 bc be bd dd bb c0 e3 65 bd
       0.010127452 -0.018085886 -0.006767004 -0.056125402
000330 3b 25 10 bd 41 df 0c bd 7c 1e 50 bd 34 3c e7 bc
       -0.035191756 -0.0343926 -0.050810322 -0.02822695
000340 b4 a4 0a bd 90 46 c5 3c 0c a3 4f bc c6 35 bc 3c
       -0.03384848 0.024081498 -0.012673151 0.02297486
000350 19 2c 26 3d bf 7f 95 bd f3 28 81 bd a3 7c 04 bd
       0.0405694 -0.07299756 -0.063066386 -0.032345425
000360 b8 20 7a bd 44 75 fe 39 74 17 1f 3d 2c b7 a7 3c
       -0.06106636 0.00048534025 0.038840726 0.020473085
000370 04 fa 3d bd 0c cb 90 bc 5a b3 a0 bc da f3 a0 bd
       -0.04638101 -0.017674945 -0.019616771 -0.07859011
000380 eb 8c c5 3b 82 65 21 bd 90 a4 d0 3c 69 83 53 3d
       0.0060287616 -0.039403446 0.025469095 0.051638994
000390 1a 44 3c bd 9b 4e 4d bc 72 a4 b0 bc 97 5f 93 bc
       -0.045963384 -0.012530948 -0.021562789 -0.017989917
0003a0 17 60 30 bd 0a c7 32 bd 4d 6f a3 bc ac dc 2d bd
       -0.04306039 -0.04364685 -0.019950533 -0.042446777
0003b0 f8 89 14 bd 1f 8e f8 3b 49 42 68 bd c2 5c 81 bd
       -0.03626439 0.0075853015 -0.05670384 -0.0631652
0003c0 73 26 9f bc f4 da b4 bd 34 20 3d bd 0d bd 8d bd
       -0.019427514 -0.088308245 -0.04617329 -0.06920824
0003d0 a3 16 9b bc 0c e0 99 bb 9c 28 c1 bc 11 5d d8 bc
       -0.018931692 -0.004695898 -0.023578934 -0.026411565
0003e0 9a 99 de bc a1 87 1c bd
       -0.027172852 -0.038215283

hidden_fc.weight f4 [100, 250]
000000 9e 3a 9a bd 44 85 c0 bd 93 98 dd bc af 41 d9 3d
       -0.075307116 -0.094004184 -0.027050292 0.10608231
000010 15 17 98 bd e6 da e3 3d 30 6c 9c 3d f5 47 a8 bd
       -0.074262775 0.11125736 0.07637823 -0.0821685
000020 2d 57 ef 3d e7 75 0b 3d 6b c4 b1 3d 44 10 55 3d
       0.11686549 0.034047987 0.08680042 0.052017465
000030 a6 be 88 3d c9 2f 32 3c e3 82 e4 bc 51 a8 1c 3d
       0.06676988 0.010875651 -0.027894443 0.038246457
000040 04 80 60 3d 5a b4 c8 3d 40 f7 d7 bd 07 32 45 bd
       0.054809585 0.09800024 -0.10545206 -0.048143413
000050 15 7f 79 bd 77 ee d7 bd 9e f8 5d 3c 61 21 49 3d
       -0.06091221 -0.105435304 0.0135480445 0.0491041
000060 76 51 bf bd b5 ec 33 3e 92 a1 bd 3d dd e9 92 3d
       -0.09341709 0.17570765 0.09259333 0.07173512
000070 dd 7d 87 bd e2 1e 05 3c 25 7f 3a 3d e7 67 44 3d
       -0.066158034 0.008125039 0.04553141 0.04795065
000080 9b cb 8b bd 4b ee 1f 3e ec 3c 36 3c c6 2b 4b 3c
       -0.06825944 0.15618245 0.011122923 0.012400573
000090 ff bc 89 bd ed d5 e8 3d a1 fb 78 3d d4 ee 44 be
       -0.06725501 0.11368928 0.060786847 -0.1923173
0000a0 40 d1 a0 3d 03 f4 de bd 43 64 a2 bc 20 fc 2c be
       0.07852411 -0.10886385 -0.0198232 -0.16893053
0000b0 1b a8 95 bd e1 a2 b0 3d 43 61 99 bc 0b ac 75 3d
       -0.07307454 0.08624817 -0.018723136 0.059978526
0000c0 d7 0f c3 bc 1b f1 17 3d f2 ec d7 bd c7 09 fb 3d
       -0.023811264 0.03709517 -0.105432406 0.12257724
0000d0 83 40 d7 3c af eb 01 3e 10 c0 c6 3d d3 9d de 3c
       0.026275879 0.12687562 0.09704602 0.027174866
0000e0 b6 3b 7f bd 17 3f 2b 3d 84 0d 80 3d 32 8a 59 bd
       -0.062312804 0.041808214 0.06252578 -0.05311031
0000f0 fb 03 7e 3c 2c 35 a9 be e0 32 22 3d 81 c9 e1 bc
       0.015503879 -0.3304838 0.0395993 -0.027561905
000100 d3 08 1a 3c 12 1b 6a 3d a9 d3 d1 3d c8 3f 0c bc
       0.009401518 0.057154723 0.10245449 -0.0085601285
000110 0a 47 87 3d f9 6d d1 bc b1 bf 04 bc d4 d1 3f 3e
       0.066053465 -0.025565134 -0.008102343 0.18732387
000120 e2 df 7e 3d d7 fb 1e 3e c7 b2 03 3e 67 80 8b bd
       0.06222523 0.15525757 0.12861167 -0.068116
000130 95 d2 30 bd 93 6b c1 3d d9 c4 92 bd fd ea e6 3d
       -0.043169577 0.09444346 -0.07166452 0.11275289
000140 cd 09 20 ba 3d 4d c9 3c 23 82 35 bd 02 e1 1d 3d
       -0.0006104976 0.024572963 -0.04431356 0.038544662
000150 69 d0 3a bd 9e a5 ac bd b8 2a 9c 3d bb b9 a3 3d
       -0.04560891 -0.084300265 0.076253355 0.0799441
000160 e9 b8 17 3c 61 3f 4c 3c ad 37 53 3d 17 c7 d0 3c
       0.009260395 0.012466283 0.05156677 0.025485558
000170 38 26 ea 3d 38 49 cc bc f9 cd ed bd b1 e4 9f 3d
       0.11433071 -0.024937257 -0.11611552 0.07807291
000180 e1 53 d3 bc 36 5c 55 bd ee e2 b1 3e 9f 39 a2 bd
       -0.025796833 -0.052089892 0.34743446 -0.079211466
000190 af ef b3 3d ad 05 eb 3b 9a 98 fb bd d4 e4 00 bd
       0.087859504 0.0071723075 -0.12284966 -0.031468228
0001a0 fc 3f 7b 3c 24 1c 58 bd 80 8c f4 3b a3 04 7d be
       0.015335079 -0.052761212 0.007463038 -0.247088
0001b0 9e 6a a6 3d 78 80 16 be e3 1d ab 3d 16 01 c2 bd
       0.08125804 -0.14697444 0.0835531 -0.094728634
0001c0 51 6f 10 bd d7 2e 04 3e 45 b9 54 3d 8a 7e 99 3d
       -0.03526241 0.12908493 0.0519345 0.074948385
0001d0 31 16 03 3d 26 2d cf 3d 4f 0c ca 3c 03 5c 8a 3d
       0.032003585 0.10116033 0.024664072 0.06755831
0001e0 d7 df 2c be e0 52 4c be 5a 08 25 3c 13 5f 1e bc
       -0.16882263 -0.1995349 0.010072792 -0.009666222
0001f0 aa ec 36 ba 1a 4e c8 bd fd d8 13 3e 65 c4 e2 3d
       -0.0006978015 -0.09780522 0.14438243 0.110726155
000200 38 90 fd bc 96 7b ca 3d 48 a0 5a be b3 03 cf bd
       -0.030952558 0.098868534 -0.21350205 -0.101081274
000210 39 25 74 3a 72 b5 3f bc 5b bc c0 bd c6 33 8e 3d
       0.0009313408 -0.011700975 -0.09410926 0.06943469
000220 93 61 39 bd ea 40 b5 be 37 58 4c bc 2b a4 fb bd
       -0.04525907 -0.35401088 -0.012472204 -0.12287172
000230 cd e6 fe bd e6 3a fd 3d 88 8e e0 ba 2d e9 ba bd
       -0.124463655 0.123647496 -0.0017132321 -0.09126506
000240 33 d8 3d be aa ef 4a be 20 ec 45 3c 7a 4c ce bd
       -0.18539505 -0.19817987 0.012080222 -0.100731805
000250 96 61 ed 3d b3 12 04 be 99 57 cd bb d7 d1 07 3e
       0.11590879 -0.12897758 -0.006266546 0.13263641
000260 75 e2 ba bc e1 d9 a4 bb 8c 2e 61 bd ac cf df 3d
       -0.022813061 -0.005030856 -0.05497603 0.10928282
000270 80 c5 8e bd d2 48 ec bb 91 fa 9e bd f4 c6 e6 3c
       -0.06971264 -0.0072108293 -0.077626355 0.02817104
000280 d0 17 6e bd c6 6d 5f 3e 3a e2 59 bd 43 f1 96 3d
       -0.058128178 0.21819219 -0.053194262 0.07370236
000290 3c 07 9e bd db ac 20 3d 7d 70 3c 3d 9b 5d 9c 3d
       -0.077162236 0.039227348 0.046005715 0.07635041
0002a0 46 9a a4 3c 54 05 47 3c 3a 00 03 3e 5e 5d 9d 3c
       0.020093095 0.012147266 0.12793055 0.01920956
0002b0 ed ba b8 3b 91 de ad 3d ab 6b 31 3d 97 1c d5 3c
       0.0056375177 0.08489717 0.04331557 0.02601461
0002c0 62 e3 78 3d d2 76 8c 3d 6a 6e 55 3d 4d 18 f7 3c
       0.060763724 0.06858601 0.052107252 0.030162955
0002d0 3c a5 68 3c 08 3c 69 3d 05 95 13 bd 01 03 3b 3d
       0.014199551 0.056942016 -0.036030788 0.04565716
0002e0 42 28 16 bd 46 d2 a4 3c 59 92 a4 bd 29 eb 1d 3e
       -0.036659487 0.020119797 -0.08035726 0.15421738
0002f0 b7 d3 0b 3e 61 f5 a2 bc 8d 1c ce bd 26 27 12 3d
       0.13654982 -0.019892396 -0.100640394 0.035681866
000300 ad 21 c8 bb 54 52 d5 bc 6a cd 2d 3d eb 40 55 3c
       -0.00610753 -0.026040234 0.042432226 0.013015966
000310 bf b8 3a 3e 79 05 88 bd bd ad 60 bd bc 69 be 3d
       0.18234538 -0.06641669 -0.05485319 0.09297511
000320 e5 d4 5d 3d e5 d0 9e bc 60 66 88 3d e9 f1 4b 3d
       0.05415811 -0.019386718 0.066601515 0.04979125
000330 b9 cf 38 be 91 da 4b 3e 06 9c 55 3c b2 fa 95 be
       -0.1804799 0.19907595 0.013037687 -0.29292828
000340 42 aa bd bd bd 4c c0 3c 27 ef 4f 3d d9 c6 bc bd
       -0.0926099 0.023474092 0.050765183 -0.09217615
000350 bc da 20 bd b6 75 47 3d 9c d1 4a 3b ef 60 5e bd
       -0.0392711 0.048696242 0.003094769 -0.05429166
000360 8a ed e7 3c 79 56 8c 3d 59 1d 1b bd 4d cc e7 3c
       0.02831151 0.06852431 -0.037869785 0.02829566
000370 4d 8a 2a be 03 99 2b bd 79 ae 2c bb 95 3d 2e bd
       -0.1665432 -0.04189397 -0.002634911 -0.042539198
000380 8a da 3f 3d 9d c4 85 bc 62 a5 6c bd ce 4f 79 3d
       0.046839274 -0.016329104 -0.05777491 0.060867123
000390 f4 ba 99 bd 48 16 c6 bd 9b 1f f0 bc 3a e6 2e be
       -0.075063616 -0.096722186 -0.029311946 -0.17080012
0003a0 0f 9a b2 bd 8b 82 11 3e 6b 16 91 3d 35 9f 2d bd
       -0.087207906 0.14209954 0.07084354 -0.04238816
0003b0 75 25 d9 3d 1f 15 e5 3d 56 2d a4 bd a1 ee 2d bd
       0.106028475 0.11185669 -0.0801646 -0.042463902
0003c0 c4 90 c6 3d aa 62 fb 3c bb c5 03 3e e4 4d 4d b9
       0.096955806 0.030686695 0.12868397 -0.0001957934
0003d0 5b 6c 05 3e e4 19 97 3d 1d 37 b1 bc eb 2d ff 3c
       0.13029616 0.07377985 -0.021632725 0.031149825
0003e0 20 d4 a4 bc 46 4a 03 3d 69 b3 8d be 79 89 bc 3d
       -0.02012068 0.032053255 -0.27675942 0.09205908
0003f0 75 60 24 bc 10 5d 30 3d 99 ff 96 3d 16 9c 63 3d
       -0.010032763 0.0430575 0.0737297 0.055568777

hidden_fc.bias f4 [100]
000000 d1 80 4c bd 11 a6 f1 bd 13 6a 9a 3c 57 32 4d bd
       -0.049927536 -0.11799253 0.018849408 -0.050096836
000010 87 1c bc bd bf 7c 87 bd 07 53 d1 bd 88 48 85 3d
       -0.09185129 -0.0661559 -0.10220914 0.06507975
000020 f7 28 07 3e f3 5e d1 3d 81 cb be bd 18 ba 8b bd
       0.1319922 0.10223188 -0.09316159 -0.06822604
000030 39 bb 8c bd 83 de 4d 3e ff 8e 13 bd 70 ab e1 3c
       -0.068716474 0.20104413 -0.036025044 0.027547568
000040 40 82 dc bc 33 62 ca 3c 76 9b d5 bd da d2 39 be
       -0.026917577 0.024705028 -0.104300424 -0.1814684
000050 e7 59 26 bd 62 09 a1 bd 2f 34 b3 3d 67 3a 82 3a
       -0.04061308 -0.07863118 0.087501876 0.0009935618
000060 00 98 d7 3c 46 3c 19 3e 8f d1 13 3c 83 33 61 3d
       0.026317596 0.14964399 0.009022131 0.054980766
000070 bb 47 45 be 39 45 00 be 71 14 0c be 73 a1 b6 3d
       -0.19265644 -0.12526406 -0.13679673 0.08917513
000080 50 7c c9 bb 44 7f 47 3c dc 91 03 bd 4c 11 64 3e
       -0.0061488524 0.012176339 -0.032121524 0.22272223
000090 c9 f4 98 bd 13 fa 71 3c 64 6f 08 be 1b 78 0f be
       -0.07468564 0.014769095 -0.13323742 -0.1401066
0000a0 d2 26 81 3d cf 6a 2d be c7 a7 ba 3d ca 3f 00 3e
       0.063062325 -0.16935275 0.09114032 0.12524334
0000b0 d7 39 8a 3e a2 54 0f bc 92 86 0e 3c 8e 67 8b bd
       0.26997253 -0.008748205 0.008699076 -0.06806861
0000c0 91 e4 4a 3d 56 ad 3e 3d 18 c6 88 bd 10 c9 15 bd
       0.049534384 0.046552025 -0.066784084 -0.0365687
0000d0 1d 7f 17 3e 8e 27 01 3e c8 83 50 bd ef d3 90 3e
       0.14794584 0.12612745 -0.050906926 0.28286693
0000e0 1b bd bb bd dd ab 3c 3e 69 58 cb 3d dc 79 16 3e
       -0.091669284 0.18424936 0.09928972 0.14694923
0000f0 d1 bf 3e 3e 92 e5 59 be 66 68 83 3d 11 73 2f 3e
       0.1862786 -0.2127898 0.06416397 0.17133738
000100 77 2a be 3d be 14 4f be 92 7c bf 3d a6 ee ff bd
       0.09285443 -0.20222756 0.09349932 -0.124966905
000110 14 1b 09 3d 1f 1b 66 3d 67 b6 1d be cc 3b 22 3d
       0.03347309 0.05617821 -0.15401612 0.039607808
000120 f9 0b ee 3d c0 9f 49 3e a4 a0 99 bd 87 26 4d be
       0.11623377 0.19689846 -0.07501343 -0.20034228
000130 d5 32 41 3e c7 33 4c 3c 4f d3 97 bd 17 57 9a bc
       0.18867047 0.012463517 -0.07413351 -0.018840356
000140 6f c1 2a bd a6 fd a4 bc b4 0b 8c 3d 51 37 69 bd
       -0.04168838 -0.02014048 0.0683817 -0.05693752
000150 17 6a 9b 3c 3e a1 f7 3c 8e ea c5 3c 8f 9c 40 bd
       0.018971486 0.030228253 0.024159696 -0.047024306
000160 14 ef 23 3d 52 e2 16 bd 17 1c df bd b2 a7 0b 3e
       0.040022925 -0.03683693 -0.108940296 0.1363819
000170 29 6c 43 bd 17 3b c4 bd b3 8e 67 bd 07 48 2e 3e
       -0.04771057 -0.09581583 -0.056532573 0.17019664
000180 58 04 33 bd 7b 9c 5a 3d 4e 8b 79 bd ee 77 39 bd
       -0.043705314 0.053371888 -0.060923867 -0.04528039

output_fc.weight f4 [10, 100]
000000 b5 59 ef 3d 58 c4 24 3e 03 10 e5 bb 00 ac 1a bd
       0.11687032 0.16090524 -0.006990434 -0.03776169
000010 7d 44 97 bb b3 7a 1c 3e 84 3f ee bd da 42 1e bd
       -0.0046163187 0.15281181 -0.116332084 -0.038637973
000020 fc 8c 0f 3e 04 e5 b4 bd d8 2b 33 bb 5d ac 13 be
       0.14018625 -0.08832744 -0.0027339365 -0.1442122
000030 eb 69 91 be 75 39 f3 bd cb 51 63 bd 3c 50 ea bd
       -0.28401121 -0.118761934 -0.055497926 -0.11441085
000040 86 67 9c 3d a2 0a 60 bd ab 3c 53 be 1c ed 0a be
       0.07636933 -0.05469764 -0.20628612 -0.13567013
000050 00 bc 2c bd 12 31 4f be 01 52 9f 3d 48 da e0 bd
       -0.04217148 -0.20233563 0.07779313 -0.10979134
000060 a8 b0 31 be 70 78 4c bc 0c ac 65 bc 78 d9 16 3e
       -0.17352545 -0.012479886 -0.01401807 0.14731395
000070 28 4a 22 be 24 3f 0b 3e 2b e2 ed 3d 59 07 09 3e
       -0.15848601 0.13598305 0.11615404 0.13381709
000080 f4 26 0b be 45 97 b0 3d f1 fe 1e be 4c e1 ca 3d
       -0.13589078 0.086226024 -0.1552694 0.09906253
000090 71 86 20 3c 0e 32 f1 3d c7 fd 03 3e 64 86 20 bc
       0.009797678 0.11777125 0.12889777 -0.009797666
0000a0 1a 00 2d bc d9 54 4c be 8e c3 64 3d 2a 69 a2 bd
       -0.010559106 -0.19954242 0.055850558 -0.07930215
0000b0 0e a2 bf 3d be 1d 8d bc 44 60 25 3e b8 cb 9a 3d
       0.09357081 -0.017226096 0.16150004 0.075583875
0000c0 86 b5 5c be 60 47 02 be b7 5b 9a be 40 d4 a8 bd
       -0.2155362 -0.1272254 -0.30148098 -0.082436085
0000d0 e2 e1 d9 3a 21 80 b4 bc 5b 93 2c 3d 6d e5 17 be
       0.0016623104 -0.022033753 0.042132717 -0.14833613
0000e0 67 ce 88 be 02 d9 38 be 49 9f 36 be 12 57 b2 3d
       -0.26719972 -0.18051532 -0.178342 0.087080136
0000f0 53 a8 34 be 46 f1 5a bd d7 e4 da 3d db bc 2b 3c
       -0.17642336 -0.053452753 0.10688179 0.010482038
000100 f9 35 be bd cc 2a a1 3d ea 2f bc bd 66 fe 15 3e
       -0.09287638 0.07869491 -0.091888264 0.14647827
000110 5e 5c 2e 3c c7 7b 6e bd 13 f0 6d be 26 be fd 3d
       0.010642139 -0.058223512 -0.23236112 0.123897836
000120 d3 86 3e be 25 bc 0a be d6 8d 8a bc c8 8c 6d bb
       -0.18606119 -0.13548334 -0.016913336 -0.0036247242
000130 c5 be 96 bd fd 83 51 be 9a c5 13 be 90 53 63 3e
       -0.07360605 -0.20460506 -0.14430848 0.22199845
000140 42 cc 59 3d 5a 95 82 3d 94 cb 21 be 37 65 97 3c
       0.05317331 0.06376143 -0.15800315 0.01848088
000150 7a 7f bd 3d 47 13 b8 3d f1 37 1a bd 27 f3 82 3d
       0.0925283 0.08988052 -0.037651006 0.06394034
000160 d2 b0 fa 3c 8e 1c 51 3e 08 d6 f1 bd 52 fc f8 bd
       0.030601893 0.20421049 -0.11808401 -0.12157501
000170 33 d7 84 3d f6 63 23 be 93 7b ed bd bd 47 db 3d
       0.064863585 -0.15956101 -0.115958355 0.10707042
000180 df 79 9b 3d f4 87 da 3d b3 c1 e0 bd 83 ae 5f 3d
       0.075916044 0.10670462 -0.10974445 0.054609787
000190 11 ee 64 be 0f 43 25 3e 38 e2 43 be aa 54 a6 3d
       -0.2235644 0.16138862 -0.19129264 0.08121617
0001a0 e4 cf 75 3d a1 a1 e4 bd 8a 5d ff 3d 78 85 eb bc
       0.060012713 -0.11163641 0.12469013 -0.028750166
0001b0 28 e3 5b 3d 7a 2f 97 be b6 af 7f 3b d2 ab 32 3d
       0.05368343 -0.2952841 0.0039014644 0.043620892
0001c0 3c 9e b9 3d 98 2a 89 be fe 75 11 3e 2b fe b0 bd
       0.09063384 -0.2679031 0.14205167 -0.08642229
0001d0 b0 55 63 bd 07 b5 61 be 64 ba ba ba f6 66 30 3d
       -0.05550164 -0.22041713 -0.0014246223 0.04306694
0001e0 2b d2 ba 3d f9 cf fd ba 03 00 24 3d bd 41 ff bd
       0.091221176 -0.0019364349 0.040039074 -0.124637105
0001f0 ef 39 97 bd dd e4 dc bd 74 7d 2c 3c 68 06 8d bc
       -0.07384097 -0.1078584 0.010527957 -0.017214969
000200 a0 5f 2d 3e 89 76 03 3d 31 ed 0d bd 40 43 1e bc
       0.1693101 0.032095466 -0.03465003 -0.009659588
000210 70 3a 4c 3d 2e 62 2f bb c7 e9 05 3e db fe 9f be
       0.049860418 -0.00267614 0.1307746 -0.31249127
000220 e4 bc da bd d5 ca ce 3c e3 e6 a9 3d 50 8c 3a be
       -0.10680559 0.025243202 0.08295991 -0.18217587
000230 8f 25 39 3d 64 14 33 3e 24 6e 4c be 37 8e 41 bd
       0.045201834 0.17488247 -0.1996389 -0.047254767
000240 5c 5b 0e be b7 20 b6 3d 4e c2 0b be fb 37 a5 bd
       -0.13902038 0.088929586 -0.1364834 -0.08067318
000250 5d 68 6a be e5 33 cc bd 0e cc dc 3d c6 7b 88 bd
       -0.22891374 -0.099708356 0.10781108 -0.06664233
000260 17 f2 82 3d ed a5 8a 3d 3c ab 10 3c 27 63 b0 bd
       0.06393831 0.06769929 0.008829888 -0.08612662
000270 30 0b 94 3d 07 65 0a be 7b b7 0b be 51 44 82 3d
       0.07228696 -0.13515101 -0.13644211 0.063606866
000280 99 61 34 be 4c eb 18 3e 5f 71 e4 3d 74 15 8a be
       -0.17615356 0.14933509 0.11154436 -0.26969492
000290 3f 97 5d bd 28 73 60 3e 54 da 88 bc 6e f9 3c be
       -0.054099318 0.21918929 -0.01670567 -0.18454525
0002a0 c4 fe b0 3d 29 c0 64 be 8a 62 ab 3d 9c 46 0e be
       0.08642343 -0.22338928 0.08368404 -0.13894123
0002b0 76 a1 a6 3c c1 20 7b be 7b 4a b2 3d 52 eb ac 3d
       0.020340662 -0.24524213 0.08705612 0.08443321
0002c0 75 78 4f bd e1 67 c6 bc 09 42 95 bd a9 13 7e 3e
       -0.050651986 -0.024219455 -0.07287986 0.24812187
0002d0 26 ec 4e 3d 89 fb 73 be 78 56 a8 3d ee 27 90 3d
       0.050518177 -0.23826422 0.082196176 0.07038866
0002e0 1b aa 4a 3d 79 ad e1 bd cc 94 5c be 2a 4f bd 3c
       0.04947863 -0.110194154 -0.21541137 0.023109037
0002f0 55 65 65 be e0 1a bd be d5 d2 79 be 82 8d 4a 3d
       -0.22401936 -0.36934566 -0.24396832 0.04945136
000300 40 9f f4 bb a5 e4 0a 3e b4 75 80 3d a2 d1 3c bd
       -0.007465273 0.13563783 0.0627245 -0.04609836
000310 cb 2d d9 bc 94 7f d3 3d d5 cf b8 3d a1 02 7a be
       -0.026511094 0.10327068 0.09024016 -0.24415065
000320 b2 5c 8f 3d 3f f2 82 3d 02 b9 f2 3d 4a 72 3c be
       0.07000102 0.06393861 0.11851694 -0.18402973
000330 ff c7 fb 3d 45 ee 05 3d 51 52 ab 3d f1 51 52 bd
       0.122940056 0.032697935 0.0836531 -0.051347677
000340 0a e8 5e 3d ef 04 ad 3b 74 a5 fe ba 91 be 47 3d
       0.05442051 0.005280129 -0.0019427971 0.048765723
000350 0d 90 60 be d4 01 d4 bd 3e eb f9 bc 1f f8 87 bc
       -0.21929951 -0.10351911 -0.03050768 -0.016597806
000360 22 d7 9e 3d a7 7a 5e 3c 31 75 fa bd 48 05 9b 3d
       0.07755877 0.013579047 -0.12229384 0.07569367
000370 20 94 ff 3d 81 71 07 3e 01 5e ab 3d bb 7b 49 be
       0.124794245 0.13226892 0.08367539 -0.19676106
000380 d5 79 87 3d 4f db c8 3d f4 95 cb bc 08 77 f5 3c
       0.066150345 0.09807455 -0.024851777 0.029963985
000390 28 92 a7 ba 51 f9 92 bb 8a 37 57 3d 24 1a fc bd
       -0.0012784647 -0.0044852872 0.0525432 -0.123096734
0003a0 09 74 b7 3d 2f 50 3f 3d 23 3a af 3c e2 af 82 bd
       0.08957679 0.04670733 0.021390026 -0.06381203
0003b0 44 fb c3 bc eb dd 00 be 47 84 0d 3d 68 84 b2 bd
       -0.023923524 -0.12584655 0.034549978 -0.08716661
0003c0 72 60 00 bd db 67 dc bd 98 c0 93 3d 8c 3a 2c be
       -0.031341977 -0.10761996 0.07214469 -0.16819209
0003d0 17 9c d7 3d ed 9e cb bc da 5a a9 3d fb f6 6c 3d
       0.10527819 -0.024856055 0.08269282 0.057852726
0003e0 4e 83 20 3d 42 f0 23 be c1 72 95 bd 4b 90 86 3d
       0.039187722 -0.1600962 -0.07297278 0.065704904
0003f0 8e 08 16 bd 9d 2f a7 3d db 61 b1 bc 95 18 75 3d
       -0.036629252 0.081633784 -0.021653106 0.059837896

output_fc.bias f4 [10]
000000 1d 68 9f bd 70 20 84 be fe 1b 30 3c 82 3f bf 3b
       -0.0778353 -0.25805998 0.010748861 0.005836428
000010 bf f3 3a bd c5 45 ec bd 4c 1f fd 3b 7b 70 25 be
       -0.04564261 -0.11536745 0.007724678 -0.16156189
000020 2c 7f 95 3e d4 59 9b 3d
       0.29198587 0.07585493
